…
        tile = TestAttentionTile(input_dim=128, hidden_dim=128)
    
        # Create sample state
        original_state = torch.randn(1, 32, 64)  # [batch, seq, state_dim]
        tile.state = original_state
    
        # Test compression
        compressed = tile.compress_state()
>       assert compressed.shape[1] < original_state.shape[1]
E       assert 32 < 32

tests/core/tiling/test_strategies.py:316: AssertionError
______________ TestMetricsIntegration.test_metrics_initialization ______________

self = <test_metrics_integration.TestMetricsIntegration object at 0x705544fec920>
attention_tile = QuantumMotivicTile(
  (query): Linear(in_features=32, out_features=32, bias=True)
  (key): Linear(in_features=32, out_...Linear(in_features=32, out_features=32, bias=True)
  (height_proj): Linear(in_features=32, out_features=1, bias=True)
)

    def test_metrics_initialization(self, attention_tile):
        """Test that advanced metrics are properly initialized."""
        metrics = attention_tile.get_metrics()
        assert "ifq" in metrics
        assert "cer" in metrics
        assert "ae" in metrics
>       assert "quantum_entropy" in metrics
E       AssertionError: assert 'quantum_entropy' in {'ae': 1.0, 'cer': 1.0, 'density': 1.0, 'flow': 0.0, ...}

tests/metrics/test_metrics_integration.py:37: AssertionError
_____________ TestMetricsIntegration.test_metrics_after_processing _____________

self = <test_metrics_integration.TestMetricsIntegration object at 0x705544fecad0>
attention_tile = QuantumMotivicTile(
  (query): Linear(in_features=32, out_features=32, bias=True)
  (key): Linear(in_features=32, out_...Linear(in_features=32, out_features=32, bias=True)
  (height_proj): Linear(in_features=32, out_features=1, bias=True)
)
input_tensor = tensor([[[ 0.1795,  1.3871, -0.8838,  ...,  0.1585, -1.8285, -0.2253],
         [-0.8166, -0.0224,  1.0265,  ...,  0.0...07,  0.2936,  ..., -0.2430,  0.2969, -1.2162],
         [ 0.4119,  0.5320, -0.6331,  ...,  0.9421, -1.9100, -0.3084]]])

    def test_metrics_after_processing(self, attention_tile, input_tensor):
        """Test metrics update after processing input."""
…
        assert isinstance(state, AttentionState), "Should return AttentionState"
        assert state.quantum_state is not None, "Should have quantum state"
        assert state.geometric_state is not None, "Should have geometric state"
    
        # Test state dimensions
        assert state.quantum_state.shape[0] == batch_size, "Batch dimension preserved"
>       assert state.quantum_state.shape[1] == attention_layer.num_heads, "Head dimension correct"
E       AssertionError: Head dimension correct
E       assert 32 == 8
E        +  where 8 = QuantumGeometricAttention(\n  (attention): QuantumMotivicTile(\n    (query): Linear(in_features=64, out_features=64, bias=True)\n    (key): Linear(in_features=64, out_features=64, bias=True)\n    (value): Linear(in_features=64, out_features=64, bias=True)\n    (output): Linear(in_features=64, out_features=64, bias=True)\n    (dropout_layer): Dropout(p=0.1, inplace=False)\n    (cohomology_proj): Linear(in_features=64, out_features=32, bias=True)\n    (field_proj): Linear(in_features=64, out_features=64, bias=True)\n    (height_proj): Linear(in_features=32, out_features=1, bias=True)\n  )\n  (flow): PatternFlow(\n    (metric): RiemannianMetric()\n    (arithmetic): ArithmeticDynamics(\n      (height_map): Linear(in_features=64, out_features=4, bias=True)\n      (flow): Linear(in_features=4, out_features=4, bias=True)\n      (l_function): Sequential(\n        (0): Linear(in_features=64, out_features=32, bias=True)\n        (1): SiLU()\n        (2): Linear(in_features=32, out_features=4, bias=True)\n      )\n      (adelic_proj): Linear(in_features=64, out_features=32, bias=True)\n      (output_proj): Linear(in_features=4, out_features=64, bias=True)\n    )\n    (flow_field): ModuleList(\n      (0): Linear(in_...(metric_net): Sequential(\n      (0): Linear(in_features=8, out_features=64, bias=True)\n      (1): ReLU()\n      (2): Linear(in_features=64, out_features=64, bias=True)\n    )\n    (ricci_net): Sequential(\n      (0): Linear(in_features=16, out_features=64, bias=True)\n      (1): ReLU()\n      (2): Linear(in_features=64, out_features=64, bias=True)\n    )\n  )\n  (arithmetic): ArithmeticPattern(\n    (layers): ModuleList(\n      (0-2): 3 x ArithmeticDynamics(\n        (height_map): Linear(in_features=64, out_features=4, bias=True)\n        (flow): Linear(in_features=4, out_features=4, bias=True)\n        (l_function): Sequential(\n          (0): Linear(in_features=64, out_features=32, bias=True)\n          (1): SiLU()\n          (2): Linear(in_features=32, out_features=4, bias=True)\n        )\n        (adelic_proj): Linear(in_features=64, out_features=32, bias=True)\n        (output_proj): Linear(in_features=4, out_features=64, bias=True)\n      )\n    )\n    (pattern_proj): Linear(in_features=64, out_features=64, bias=True)\n  )\n  (exp_map): HyperbolicExponential()\n  (log_map): HyperbolicLogarithm()\n  (transport): ParallelTransport()\n  (pattern_proj): Linear(in_features=64, out_features=64, bias=True)\n).num_heads

tests/test_neural/test_attention/test_quantum_geometric_attention.py:109: AssertionError
_______ TestQuantumGeometricAttention.test_attention_pattern_computation _______

self = <test_quantum_geometric_attention.TestQuantumGeometricAttention object at 0x7055175ec5f0>
attention_layer = QuantumGeometricAttention(
  (attention): QuantumMotivicTile(
    (query): Linear(in_features=64, out_features=64, bia...icLogarithm()
  (transport): ParallelTransport()
  (pattern_proj): Linear(in_features=64, out_features=64, bias=True)
)
batch_size = 16, seq_length = 32, hidden_dim = 64, num_heads = 8

    def test_attention_pattern_computation(
        self, attention_layer, batch_size, seq_length, hidden_dim, num_heads
    ):
        """Test attention pattern computation."""
        # Create query, key, value tensors
        query = torch.randn(batch_size, attention_layer.num_heads, seq_length, hidden_dim // attention_layer.num_heads)
…
